connect-4-hackathon-main/reinforcement/dqn_policy_net.pth (torch, 426229 bytes, 10 tensors)

conv.0.weight f4 [32, 3, 3, 3]
00000000: 8aa4 273e 7f43 233e 756c 8e3c 6a51 af3c
00000010: e90e b7bd cb17 683e 5229 77be 7185 543b
00000020: 3c6e dbbd 3362 483e f00a 1abe 4363 493e
00000030: 5916 303e eb2a ab3d 0ad2 633d e7f8 963c
00000040: 5732 7ebb 2b33 4dbe 6bdb 303c ad47 aebb
00000050: c1f2 333d 2171 5f3e a755 11ba ff25 d3bd
00000060: 0f2d 873e 5245 103c a820 a63e 1f13 a43d
00000070: 855b 31be bfb1 1a3e 9931 1abe 632d 013c
00000080: 687a 213e 0ecf 88bd cd93 033e 7427 323c
00000090: 44b4 343e b5f9 393e 7686 263e 10a6 12be
000000a0: d919 9abd 6aa2 86be ca99 da3d af6c e7bb
000000b0: 421c b0bd 9a17 4b3e 19b2 58be 984a fc3d
000000c0: daa8 1c3d bcf1 1dbe 7b9d 1bbd 50a6 89be
000000d0: 9e7d 7ebd 09d4 a3bd b833 aabd a842 38bb
000000e0: a1aa 06be 9a2c 8f3d 30e9 cdbc 6940 0a3e
000000f0: 0b67 15be 99e5 0dbd d34b b33d 5995 fcbd
00000100: d5d2 f0bd 294b 93bd d380 28be c70e 813e
00000110: 9222 153d 5801 9fbd 7f56 0c3e 48d0 803e
00000120: c935 853d 5f1d 903e 8ec5 a3bd 31c4 6abd
00000130: 9ded 4fbd 71f6 f7bd 48c4 d0bd 8b6e 8b3e
00000140: 5a61 e23d 50f5 53bd 1ea9 153d 9c7f 363e
00000150: 37ba 94bd 313c 5cbe 1148 a53d 9f3b 2b3e
00000160: 005c 37bd 0247 2b3e 33b4 b7bc aa1b cd3b
00000170: 0e09 d0bd b9df 263d 82ff a53d a70a c63c
00000180: 25dc 0bbe 1893 e83d c281 c9bd 35fb 703e
00000190: 35cb c9bd 5c8d 8abc be47 ddbc 41a8 e13d
000001a0: 7535 1ebd 0477 b13d 6381 01be 93cb 223c
000001b0: f2ec 70be e6c2 45be abbc 33bc ea39 7bbd
000001c0: e12e b9bd 0907 24be b436 06be a2d1 553e
000001d0: e408 fd3d a21d 87bc 7201 2b3d 8b34 173e
000001e0: 48e5 73bc e848 af3b 14ec 823e a7ae 143e
000001f0: 6a92 fb3d 5d0a 633e 23d4 503e 16a4 0d3e
00000200: 94dc 2d3e fe42 5d3d 1beb 39be 0d15 373e
00000210: 6233 29be 3790 253d 5a60 f9bd cc49 de3d
00000220: 61d6 3b3e ef98 433e 2703 853e 273c ae3d
00000230: e629 ecbd 6a22 6d3c c219 753d 31df 94bd
00000240: b87d eabd 04e6 1fbe 3cf5 193e cd54 1cbe
00000250: 894e 0bbe 6f95 84be a51c 06bc c6a3 bc3c
00000260: 2aee 393e ea66 80bc bf1b 0d3e 6b7b 3d3e
00000270: 2559 83be 97bb f2b9 06a5 27be f250 2bbe
00000280: 9ac6 60be 6311 7f3d b67c ecbc 5f02 cfbd
00000290: 54d0 93bd d60e e53c a810 aabd 975c 6f3d
000002a0: 5ee4 fe3d 2cf6 16be b09c c7bc 3b6f e03d
000002b0: b0e2 2f3e 303f 39be ed1d 0f3e 60af 8dbd
000002c0: 471c 44bd 599b 62bc 8694 e73c 1b60 683c
000002d0: add8 da3a 9f79 143d 8f95 f8bd 47b0 903c
000002e0: b008 803e 9450 8ebe 2e85 febd a6f4 12bd
000002f0: 4b3b 773d 005e 5d3e 0c6c 003d 8d8b 41bc
00000300: f42a b03d 84ad 873e 7fa2 1b3e 4069 ba3c
00000310: 7df0 f93b a269 26be d01a cf3d f4a2 24be
00000320: 39c5 893e cbc5 113e 4124 30be 7fa0 5b3d
00000330: c1e3 893d d806 383d 97fe 8bbe f4f7 84be
00000340: 79b1 813c 56bb 68bd 1db8 73bd a978 22bd
00000350: 4450 a7bd 2376 39bd 530d c73d 4947 213e
00000360: 0cd0 febd f5c5 11be 09e0 5d3d 0e1c 23be
00000370: c3a7 25be 5415 ca3d 84fc b7bd 0ec0 653e
00000380: 9180 4bbd b2be 0abe b2fb 08bd 8d5d 393e
00000390: e1d1 0cbd d437 42be f48c 2d3e 364b 123e
000003a0: 6d4b 4e3e d6a2 dc3d d3ba 203e 23a7 143e
000003b0: 8258 0dbe 5100 863d b524 503e 2729 d73c
000003c0: e3d4 07be afdb 2fbe 7dc8 94bd 7968 353c
000003d0: 9047 033d 79de 493e 7480 69be cbdd 4a3e
000003e0: 6a44 0dbd a200 63be 5a29 de3d cd30 2c3d
000003f0: f176 1f3e 62f2 423d 968b 0f3d 6dfd 883d
0.1637136 0.15943716 0.0173857 0.021401126 -0.08938391 0.22665326 -0.24136856 0.003242817
-0.10714385 0.1956871 -0.15043235 0.19666772 0.17196025 0.08357795 0.05562023 0.018429233
-0.003878733 -0.2003905 0.010794501 -0.005318603 0.04393268 0.21820499 -0.0005544074 -0.103099816
0.26401564 0.00880559 0.3244679 0.080114596 -0.17320068 0.15106867 -0.15057983 0.007884356
0.1576935 -0.066801175 0.1284935 0.010873664 0.17646891 0.18161662 0.1626223 -0.1432116
-0.07524461 -0.26295787 0.10673864 -0.0070625166 -0.0859914 0.19833222 -0.21161689 0.12318915
0.038246967 -0.15424246 -0.037991982 -0.268847 -0.062131517 -0.07999427 -0.08310646 -0.0028115902
-0.13151027 0.06990929 -0.025135607 0.13501133 -0.14590089 -0.03464279 0.08754697 -0.12333173
-0.11758963 -0.0719207 -0.16455393 0.25206587 0.036409922 -0.07763928 0.1370487 0.25158906
0.06504399 0.28147408 -0.07996665 -0.05731601 -0.050763715 -0.12107552 -0.10193688 0.27232775
0.110537246 -0.05174762 0.036538236 0.17822117 -0.0726208 -0.21507336 0.08070386 0.16721962
-0.044765472 0.16726306 -0.022424793 0.0062594013 -0.10157977 0.040740702 0.08105375 0.024175001
-0.13658197 0.11356181 -0.098392025 0.23533328 -0.09853212 -0.016913109 -0.027011748 0.1101842
-0.0386252 0.086652786 -0.12647013 0.009936231 -0.23527887 -0.19312629 -0.010970275 -0.061334528
-0.090421446 -0.16018309 -0.13106805 0.2088075 0.123552114 -0.016493622 0.041749425 0.14766137
-0.014886208 0.0053492673 0.25570738 0.1451975 0.12283786 0.22171922 0.20393424 0.13832125
0.16978675 0.054018967 -0.18156092 0.17879124 -0.16523507 0.040420737 -0.12176581 0.108539194
0.18343498 0.19101308 0.25978968 0.08507567 -0.11531429 0.014473537 0.059839018 -0.07269133
-0.1144976 -0.15615088 0.15034956 -0.15266724 -0.13604178 -0.2589526 -0.00818554 0.023027312
0.18157259 -0.015674073 0.13780116 0.18504111 -0.2565395 -0.00046297602 -0.16371545 -0.16730097
-0.2195076 0.06227244 -0.02886806 -0.10107874 -0.0721747 0.027961176 -0.08303958 0.05843791
0.12445901 -0.14742345 -0.024366707 0.109587155 0.17176318 -0.1809051 0.1397626 -0.06918216
-0.04787853 -0.013830983 0.028269064 0.01418307 0.0016696654 0.0362488 -0.12137901 0.01766218
0.25006628 -0.2779585 -0.12427746 -0.035877846 0.06035928 0.2161789 0.03135304 -0.011813057
0.08601943 0.2649957 0.15198706 0.022755265 0.0076275454 -0.16251233 0.10112536 -0.16077787
0.2690828 0.14235608 -0.1720133 0.053619858 0.06732894 0.0449284 -0.27342674 -0.25970423
0.015831696 -0.056819282 -0.059501756 -0.03966585 -0.08169606 -0.04527868 0.09719338 0.1574985
-0.124420255 -0.14235671 0.054168735 -0.15928671 -0.16177277 0.09867349 -0.089837104 0.22436544
-0.049683157 -0.13549307 -0.03344316 0.18102093 -0.034379844 -0.18966609 0.169483 0.14286503
0.2014596 0.10773246 0.15696268 0.14516883 -0.13803294 0.06543029 0.20326503 0.02626474
-0.13264804 -0.17173646 -0.072648026 0.0110722715 0.03205067 0.19713773 -0.22802907 0.1981117
-0.034489073 -0.2216821 0.10847731 0.042038728 0.15572716 0.047594436 0.03504523 0.06688962

conv.0.bias f4 [32]
00000000: 7c7d 1cbe 943f 13be 5080 2b3e f11b 253d
00000010: ae2a 353e 48cd 263e f048 403e 6c45 d7bd
00000020: e9d3 133e 36f7 123d 1c87 163e f795 05be
00000030: c239 e2bd 7069 25bc fc39 14be 759a 9dbc
00000040: 5a28 783c d5a9 a0bd 033b 7a3b 0669 3e3c
00000050: b153 e93d 8789 0e3e 230d 2c3e af8e 653c
00000060: 66fe 173e 0e21 00be 8838 b63a 8e3f 2fbb
00000070: 7a6c 5fbd 0aec 05be f24f 0f3e 0ae0 2cbb
-0.15282243 -0.14379722 0.16748166 0.04030985 0.17692062 0.16289246 0.18777823 -0.10511288
0.14436306 0.03588029 0.14699978 -0.13045488 -0.11046173 -0.010095939 -0.14475244 -0.01923869
0.015146339 -0.07844893 0.0038182146 0.011621719 0.11392916 0.1391965 0.16801886 0.014011069
0.14843139 -0.1251261 0.0013902346 -0.0026740762 -0.05454681 -0.13078323 0.1399534 -0.0026378655

conv.2.weight f4 [64, 32, 3, 3]
00000000: 90c7 00bd 4c2e 51bd 4857 9cbb 69d2 bd3c
00000010: cd05 2e3d 440f 31bd 251b 243d 9f96 aeba
00000020: 0ddf 913b 638d 15be 6090 673d 8b06 fc3c
00000030: c77f 42bb 5070 823c 8ad4 203d 9564 41bd
00000040: 84af cc3d f15e 633d a71c 2abd d57f 923d
00000050: 62b6 0a3d 56e0 9b3b d623 353d 61da 0abd
00000060: a3aa 3a3d d036 b13b db44 12bc 3e29 15bd
00000070: 1035 2abd c70b f53a ac91 d4bc b73a bcbc
00000080: bd24 eebc 7b85 443c 4f53 d6b9 5bc5 32b9
00000090: 02e1 4eba fcb9 ce3d d8ac 173c 8d6e 6bbd
000000a0: 119f 703c 3e71 a33d edab 81bd 95e9 633c
000000b0: 5859 84bd 8d42 54bd 8d1e 5ebd 2a92 8fbd
000000c0: 2bb4 cabc 9784 a2bd 7dae d43b 8652 1ebd
000000d0: e8bc 38bd fe0f 41bd 61fc 063d 4776 01be
000000e0: d113 2fbd c616 ab3d eeed b6bc f5aa 79bd
000000f0: 48c0 bcbb 315f d73c 458c 4bbd 8a3e aa3d
00000100: 7c9c cfbd 28ce 9d3c 8eaa f13b a10e f43c
00000110: bff4 21bc 96ed 903d 39b1 b6bc 194c 21bd
00000120: 5cf4 1fbc c2f6 10bd 7973 613d 6dd0 e03c
00000130: dc9f 453d 8afb 4abd 3a7f 4b3d bad5 893d
00000140: 8f60 75bd 8c4a f23b ec9c 63bc c0ed 1d3d
00000150: 009a b6bc d059 80bd f921 de3c 7813 813d
00000160: 77ad 67bd ce49 943d 89f9 2bbd cb80 c83d
00000170: 1502 14bd 7051 583b e406 03bd f4ee bdbc
00000180: 1c25 39bd b7f0 5abd 62d6 953c 1490 3cbd
00000190: 0ffe 30bd 66a4 d63d 37b5 a43b 47e0 0c3d
000001a0: 37dc 333d 1f99 9dbb 5aac 573d 1166 23bd
000001b0: 5d85 bd3c 8650 59bc cd38 42bd adf8 fcbc
000001c0: af52 4ebd 8635 973d 1677 bbbc bfdc 79bc
000001d0: 0136 a9bc 8898 e1bd 5110 73bd 3d33 bcbd
000001e0: 9a86 5f3c e25a 153d 2837 e9bc 4157 6e3d
000001f0: 473b 9d3d 3e6e cabc 7a5c 46bd 69f5 9cbc
00000200: 4011 86bd fdd3 e53d 6b75 a23c 5c6f 593d
00000210: 993a 9fbd 5af3 45bc b1cf 343d 485d 413d
00000220: 8d18 753d 6b7a cd3d 519b 75bd aa5f 1cbd
00000230: fb97 b8bc ec31 bb3b 1d9f c33b c57c 043d
00000240: 7dc1 b7bb b328 11bd be41 9e3b 7a6d a43c
00000250: fc12 113d ce33 5bbb 7516 5eba 1889 34bc
00000260: 0f5a cebc 79c2 303d bd8f b43d af12 de3c
00000270: 8b10 de3b ef20 2bbc 5fb0 3f3b ff92 853b
00000280: 4f27 e03c ff31 693d c2b4 0c3d 7426 713b
00000290: 19ab 8dbd 5045 723d 92be e8bc e08c 523d
000002a0: 0633 8c3d 8db7 c23c b93b 1e3d 281f 283d
000002b0: fa52 e7bd 5a35 b73d 3148 a3bd bce6 fabc
000002c0: 986f 06bd 72b2 f13c 2216 a7bd f60a 2c3d
000002d0: 7727 44be 0c59 d1bd a29d 51bd 9bea 993d
000002e0: 00f0 c8bc 7aaa 44bc 9c9d 863d e290 433d
000002f0: 0919 15bd 24a0 dabc f621 bf3c 267b 793d
00000300: b0bf 91bc f013 ab3d 89d2 d33d bfc2 3a3d
00000310: 5dbe f1bc 73a9 c33b 5f12 083d 4190 b93c
00000320: 51c4 3bbc 2c17 97ba 7182 983c 0bcf 1e3d
00000330: 1f02 6e3d d49d 033d ef25 133d d018 d53c
00000340: 1bbe a13d e366 223e 6322 253d f37f 3b3d
00000350: 37dc 973c 5fbd f53b 4364 2c3c a4f7 3b3d
00000360: c458 c8bd c253 c6bc 2d66 32ba e4f2 833d
00000370: 63f5 7fbd 2a77 e8bb ac75 983b cb7c 173d
00000380: 3f3a c63c c7ba 3e3d 6e1e 48bc 2760 c1bd
00000390: 85ae b9bc 3489 88bb 1fb7 43bd a6d2 333d
000003a0: 91e2 47bd cde1 e2bd 878a f5ba dc25 a6bd
000003b0: 9a48 703d 425c 443c e48c c93d fafd ccbd
000003c0: d64b 89bd b036 633d 222b 173b be22 913d
000003d0: 4f67 833d 587a 013c 8a77 8f3d 9448 9ebc
000003e0: 380b 08bd 6369 1ebc e3b5 f63c a337 44bd
000003f0: bb95 c73d f383 973d adac 99bc 9584 f83b
-0.031440318 -0.051069543 -0.004771147 0.02317162 0.042486 -0.04322745 0.04006495 -0.0013320035
0.0044516386 -0.14604716 0.05653417 0.030764839 -0.0029678212 0.015922695 0.039265193 -0.047215063
0.099944144 0.055510465 -0.04153123 0.07153288 0.03386534 0.0047569675 0.04422363 -0.03389967
0.045572888 0.0054081455 -0.008927549 -0.036416285 -0.04155451 0.0018695527 -0.025948368 -0.022977216
-0.029070253 0.011994715 -0.0004087933 -0.00017048923 -0.0007891805 0.100940675 0.009257518 -0.057478476
0.014686362 0.079805836 -0.0633162 0.013910671 -0.064623535 -0.05182128 -0.054228354 -0.070103005
-0.024744114 -0.07935446 0.006490527 -0.03865292 -0.04510203 -0.047134392 0.03295553 -0.12642775
-0.042743508 0.08353953 -0.02233025 -0.060954053 -0.0057602264 0.026290508 -0.04969432 0.0831271
-0.10137269 0.019263342 0.007375068 0.029792132 -0.009885012 0.07076566 -0.022301303 -0.039379213
-0.00976285 -0.035391577 0.055041764 0.027443135 0.048248157 -0.049556293 0.04968188 0.06730218
-0.05990654 0.0073941406 -0.013892394 0.038556814 -0.02229023 -0.062671304 0.027115809 0.063025415
-0.056561913 0.072406396 -0.041986022 0.0979019 -0.036134798 0.0033007525 -0.031988993 -0.02318523
-0.045201406 -0.05345222 0.018290702 -0.04603584 -0.04321104 0.10480575 0.0050264853 0.034393575
0.043911185 -0.004809513 0.0526546 -0.03989226 0.023134882 -0.013263827 -0.04741745 -0.030880297
-0.050371822 0.07383256 -0.022883933 -0.015250384 -0.020655634 -0.11015421 -0.059341732 -0.091894604
0.013642931 0.036463626 -0.028468683 0.05818868 0.07677322 -0.02471077 -0.048428036 -0.01915999
-0.06546259 0.11222074 0.01983138 0.053084716 -0.077748485 -0.012081945 0.044143382 0.0472081
0.059837867 0.10033115 -0.059962574 -0.03817717 -0.022533407 0.0057127383 0.0059698955 0.032345552
-0.0056077824 -0.035439204 0.0048296144 0.020071734 0.035418496 -0.0033447626 -0.0008471974 -0.011019014
-0.025189428 0.043154214 0.088164784 0.027108518 0.0067768744 -0.010444864 0.0029249412 0.004076361
0.027362494 0.056932446 0.03435207 0.0036796601 -0.069174 0.059148133 -0.028411184 0.05140388
0.068456694 0.023769164 0.038631175 0.041045338 -0.112951234 0.08945723 -0.07972754 -0.0306276
-0.032821268 0.029504035 -0.081585184 0.04200264 -0.1915568 -0.102220625 -0.05117572 0.075154506
-0.024528503 -0.012003535 0.0657303 0.047745593 -0.03640083 -0.02668769 0.023331624 0.06090846
-0.017791599 0.08353412 0.10342891 0.04559588 -0.029509718 0.0059711277 0.033220645 0.022651793
-0.01146038 -0.0011527291 0.018616887 0.03877167 0.05810749 0.03213294 0.03592485 0.026012808
0.07897588 0.1585956 0.040315997 0.04577632 0.018537624 0.0074993814 0.010521951 0.045890465
-0.09782556 -0.02420986 -0.00068053865 0.06442812 -0.06248988 -0.0070942836 0.0046526995 0.036984246
0.024197696 0.046564844 -0.012214286 -0.09442168 -0.022666225 -0.0041667465 -0.04778206 0.043902062
-0.048800055 -0.11078224 -0.0018733301 -0.0811269 0.05866299 0.011984887 0.09841326 -0.1000938
-0.06703918 0.055472076 0.002306648 0.07086705 0.06416189 0.007902704 0.07005222 -0.019321717
-0.033213824 -0.009668681 0.030116027 -0.04790462 0.09745356 0.07398214 -0.018759096 0.0075841644

conv.2.bias f4 [64]
00000000: 9ff7 553c 439c 39bd d533 28bd 1092 06bd
00000010: 71f7 5f3d ee92 2e3c af74 133d 61d1 ffbc
00000020: 74a5 18bc 8a03 42bd cf61 70bc 99aa 08bd
00000030: 0bb5 003d cf68 4c3d eb0d 3a3c 6aed 74bc
00000040: 2cf7 4e3d 35ab 3b3d f449 07bc 3778 52bc
00000050: e992 1f3d 82fd 383c a661 9e3c 4e4d ea3b
00000060: 815f f63c 2286 dc3c a13c 023d a2af a73b
00000070: e599 63bc 2f2d efbc 9bb5 503d da4f 853d
00000080: 704f 793d 4792 31bd 5e14 3fbd 789e 0fbd
00000090: 64fb 4abc 673a 39bd 9e32 663d decb 23bd
000000a0: 89df 4e3d bbcd d3bc 21bf 2f3d 2e16 0abd
000000b0: 47a1 033d 7941 acbc fa14 1f3d 247b 493d
000000c0: 9b96 aebc 857f 27bd d4ac e9bc d416 61bd
000000d0: a0d2 853d 9126 b23c 8397 633d 490a 10bd
000000e0: 055d 03bd 279c 94bc d941 e43c bbf2 8c3c
000000f0: 3645 513d 9a8f 64bc de8d 6cbc 6aa0 cabc
0.013059526 -0.04531504 -0.041065056 -0.03285414 0.054679338 0.010655148 0.03599995 -0.03122777
-0.009316791 -0.047366656 -0.014671757 -0.03336582 0.031422656 0.04990464 0.011355857 -0.014949182
0.05052869 0.045817573 -0.008257378 -0.012846044 0.038958464 0.01129091 0.019333672 0.0071503287
0.030074837 0.026919428 0.0317961 0.0051173726 -0.013891672 -0.02919635 0.050954442 0.06509371
0.060866773 -0.04335239 -0.046650283 -0.035063237 -0.012389038 -0.045221712 0.056200616 -0.039989345
0.05050615 -0.025854936 0.042906884 -0.03371256 0.032136228 -0.021027314 0.038838364 0.0491897
-0.021312049 -0.040893096 -0.028524794 -0.05495341 0.06534314 0.021746906 0.055564415 -0.03516606
-0.032071132 -0.018140865 0.02786343 0.017205587 0.051091395 -0.013950253 -0.014438121 -0.024734695

conv.4.weight f4 [64, 64, 2, 2]
00000000: edc9 b03c f62d 203d c578 1b3c ca78 783c
00000010: 93e8 8ebd b8d8 5cbd 1bb3 e33d 4b84 013b
00000020: 02cb 27bb fa24 15bd 66f1 86bd fa28 713c
00000030: af07 abbc 2940 613d 111c 06bd 4d3c b8bd
00000040: 2db2 c63d 770c 313d 20db 13bc e111 9d3d
00000050: fea1 a63c da30 973d 1544 5abd 845d 8cbd
00000060: d502 9ebd 70c8 81bd 4483 193d 7449 ebbc
00000070: 2b24 aa3c b829 1dba a1c3 d83c 9257 9abc
00000080: 1b9d 27bd 14c7 c23c ce91 85bc bc25 a83b
00000090: c986 8bbd 2ddb 483d 699f 8d3c ab42 76bd
000000a0: 05e9 30bc 07f7 27bd a1dc 4b3c f9c0 eb3c
000000b0: d9c5 003d d1cc 8abc c471 bdbd 9c16 f23b
000000c0: 24ee 7b3d 2411 183d 6690 7b3d 70d6 6bbd
000000d0: 1b3a 813d 7ef8 8dbc 99db acbb a105 c6bc
000000e0: 7dfc 683d 5464 333c b21c f63b a9c8 a03c
000000f0: 8f68 b83c 6542 adbc c2d3 16ba 137a b83c
00000100: ab15 ef3b 372e aabd d073 803d 0f82 093d
00000110: 3ba2 00bd b0d4 a6bd 24da b03d 21b1 623d
00000120: a02d 383d 61c7 73bc feb4 a6bd 5c34 06bd
00000130: 2f19 493d 685c 8f3d ed7a a33c 615b 8fbd
00000140: 4990 1fbd 186c 21bd 5af1 503c 8406 4ebd
00000150: 2ea6 cdbd ab1f 80bd ef1f 42bd 07d7 fc3c
00000160: e37a ffbd 4558 98bd 8176 903c 6992 1d3d
00000170: 4c16 f6bd 4d3a 8abd 0aed 853d e0c6 ee3c
00000180: f834 95bd 31cb 29bc f5ae 26bd 422e cfbd
00000190: 6f2d 25bd 59ef 133b f978 f5bc e6e5 9cbc
000001a0: c644 2a3d 60d2 5fbc 44e3 e4bd c43b 20bd
000001b0: 36a5 4abd d911 ccbc df9e b43c ec60 073b
000001c0: f76c 1cbc 09cb 7b3d 863a 183c c004 b33b
000001d0: 7929 9f3c 1180 833d 8365 4d3d d093 fa3c
000001e0: e270 44bd 49a6 4bbd 8db7 8a3d b328 8a3c
000001f0: 7a39 1dbd 64c8 9e3c c5e5 a13d ca67 fd3b
00000200: 0dbf bf3d 57a8 12bc 4849 65bd 8af0 193d
00000210: 40b9 d3bd aa32 19bd 1175 063e da18 8d3d
00000220: 62b9 6a3d 15df 943d 0257 b23c 2b81 313d
00000230: 5605 5b3c 5a6c a73c 878c 2ebd a89b f8bc
00000240: e370 1c3d 0f19 54bb 68dc ffbc f04e 64bd
00000250: ff3e 623b dbd4 453d 8ab2 aebd cff2 593d
00000260: 2a81 c93c 04a3 6a3c 07b4 68bd 8959 d83d
00000270: e513 b2bd 4762 553d 3fbd d93b ab22 f4bc
00000280: 0b4d 2a3d 7013 773c ad26 bb3d ce28 703c
00000290: fc25 e53c 4f88 0a3d c615 123c 9ded 18bc
000002a0: e9d5 343d 4fd4 b23d 91b6 963d 205f 1ebb
000002b0: 89de 4bbd 3646 9abd 70ef 18bb 5c25 cbb9
000002c0: ea68 30bc 7447 15bd 24c0 ab3c b70e 363d
000002d0: 087a f0bd 9173 8dbd 332d 2abb a5f4 b7bb
000002e0: a0f9 fa3c b08b d63d dd2e 33bd 8838 563c
000002f0: 2ad6 483c a060 a7bd 8c5c c73d 58fa c83b
00000300: 6004 b83d f42f 0f3d 9892 8b3c fcdf 83bd
00000310: d030 813c 4f54 c13d b169 78bc 3d33 343d
00000320: 5929 693d 80e6 be3d 971f 543d 5b30 53bd
00000330: 485b 8c3d 4905 3d3c 277d acbd 59ed 1ebd
00000340: 3819 a2bc a072 25bd e2af 9fbd 8b0c 4b3d
00000350: 9e30 0fbd 51e0 f43c 3452 573d 3ccb dcbc
00000360: 5aa3 373c 114b 583b 2cea f93c d726 5b3d
00000370: b708 963d 154d 303d 20c1 80bd 3c19 66bd
00000380: 4732 98bd cfd7 2cbd ca1c 94bc 79f1 8dbd
00000390: 88e0 bcba d76e 8dbd 7806 593d ab2e 5cbd
000003a0: 9dc8 0f3d 079d 3b3c f317 12bd 0aeb 2d3d
000003b0: fff1 543d 9a16 d1bc 3a76 9a3d 24ca 3bbd
000003c0: df7f 04bd cd35 c03c 382e debc ce10 0e3c
000003d0: b460 c73b 5f01 c23c bb75 9abc 7378 e1bc
000003e0: 900e 9ebd 19e4 09be 70e4 8f3c 1e52 3a3d
000003f0: 6862 e73d 1bf6 123b 2a0e ea3c aeea 7abd
0.02158066 0.03910633 0.009489243 0.015165517 -0.06977954 -0.053917617 0.11118146 0.001976269
-0.002560318 -0.036412217 -0.06589012 0.014719242 -0.020877687 0.05499283 -0.03274161 -0.089958765
0.09701953 0.043224778 -0.009024411 0.07669426 0.020340916 0.073823646 -0.053287584 -0.06853774
-0.07715384 -0.063370585 0.0374787 -0.028721549 0.0207692 -0.0005995291 0.02646047 -0.018840585
-0.04092131 0.023776568 -0.016304877 0.0051314514 -0.068128176 0.049037147 0.017287927 -0.060122173
-0.010797744 -0.041007068 0.012442739 0.02877854 0.031438682 -0.016943367 -0.09250215 0.007387949
0.061506405 0.03712572 0.061417006 -0.05757755 0.06309911 -0.017330404 -0.0052752015 -0.024172606
0.056881417 0.010949213 0.007510745 0.019626932 0.022510795 -0.021149823 -0.00057536 0.022519147
0.007296284 -0.08309596 0.062720895 0.0335713 -0.031404715 -0.08146036 0.08635357 0.055344705
0.044965386 -0.014879079 -0.0813999 -0.032764778 0.049096283 0.07000047 0.019956077 -0.06999851
-0.03895596 -0.039409727 0.012752855 -0.050299183 -0.10041462 -0.0625604 -0.047393735 0.030864252
-0.12474611 -0.07438711 0.017634632 0.038469706 -0.120159715 -0.06749401 0.06539352 0.029147565
-0.072854936 -0.010363386 -0.040694196 -0.10116245 -0.040326532 0.0022573082 -0.02996491 -0.019152593
0.041569494 -0.013660997 -0.1117616 -0.039119497 -0.049473964 -0.024910854 0.022048412 0.0020657135
-0.009547464 0.061472926 0.009291297 0.0054632127 0.019428955 0.06420911 0.050145637 0.03058806
-0.047959216 -0.04971913 0.06773291 0.01686511 -0.038384892 0.019382663 0.07905153 0.00773332
0.09362612 -0.008951268 -0.05597809 0.03758291 -0.10338068 -0.037401833 0.13130595 0.06889506
0.0573057 0.07269112 0.021770004 0.043336075 0.013367971 0.020437408 -0.042614486 -0.03034766
0.038193595 -0.003236357 -0.031233028 -0.055739343 0.0034522412 0.048298698 -0.085301474 0.053210076
0.024597723 0.0143210925 -0.056812312 0.105639525 -0.08695201 0.052095678 0.0066448743 -0.029801687
0.04157738 0.015080318 0.09138236 0.014658166 0.027972214 0.0338214 0.008916324 -0.009333995
0.044149313 0.08731901 0.073590405 -0.0024165586 -0.049772773 -0.07532923 -0.0023336075 -0.00038747012
-0.010767201 -0.036445096 0.020965643 0.044447627 -0.117420256 -0.06906808 -0.0025966882 -0.0056138807
0.030636609 0.10475862 -0.043745864 0.013075002 0.012258092 -0.08172727 0.09734449 0.006133359
0.089852095 0.03495784 0.017037675 -0.06439206 0.015770346 0.09439909 -0.015161918 0.043994177
0.056924198 0.09321308 0.05178794 -0.051559787 0.06853348 0.011536905 -0.084223084 -0.03880057
-0.019787416 -0.040392518 -0.07797219 0.04957251 -0.034958474 0.029892119 0.05256863 -0.026952378
0.01120838 0.0033003727 0.03050717 0.053503837 0.07325881 0.04304226 -0.06286836 -0.05617641
-0.07431465 -0.042198 -0.018080134 -0.06930823 -0.0014410177 -0.06905907 0.052984685 -0.053755444
0.03510343 0.011451012 -0.03566737 0.04246048 0.051988598 -0.025523473 0.07542081 -0.045847073
-0.03234851 0.023463154 -0.027121648 0.008670999 0.006084526 0.023682294 -0.018854966 -0.027523255
-0.07717621 -0.13465919 0.017564982 0.04548847 0.112980664 0.0022424522 0.028571207 -0.061258964

conv.4.bias f4 [64]
00000000: dd6c 893d 9ec7 59bd c4c9 863c ea6f bc3c
00000010: 0e0c 503d cc41 1abb 5a4e fa3c 303e 43bd
00000020: 1fcf 4abd 23f6 3d3d 90b3 53bd 487a 043d
00000030: da09 f9bc ebee ab3c c7b2 00bd 5629 003d
00000040: 6e02 ce3c 2584 fdbc 8561 b03c ef5d ef3c
00000050: 7362 0abd af89 5a3c 4897 733d 88b8 0f3d
00000060: a057 b93c 9ec7 463d 2a71 68bd 828e e8bc
00000070: 7ee6 143d c426 ca3a b855 503d 88bf 653b
00000080: 8ba5 6dbd b73a 25bd 6603 31bd f6ad 17bd
00000090: f580 15bd 2543 f5bc 5384 23bc 7c4d 2b3d
000000a0: 0143 82bc c002 00bd b2f4 aabc 8445 603d
000000b0: a4a7 99bc 99cc 12bd 5bfc fa3c fce5 00bd
000000c0: 6537 82bd 6260 7cbc 7015 8a3d 9531 03bd
000000d0: e6ba 283d 495d 05bd f01f eeba 3536 8a3d
000000e0: 0ed6 093d 064c ce3c 2977 bc3c 2659 033c
000000f0: ed84 65bd 665a 2cbd ede0 f4bb 394c 2dbd
0.06710217 -0.053168885 0.016453631 0.023002584 0.050792746 -0.0023537753 0.030554939 -0.04766673
-0.049513932 0.046377312 -0.051684916 0.03234318 -0.030400205 0.020987948 -0.031420495 0.03128942
0.025147643 -0.0309468 0.021530876 0.029219596 -0.033785295 0.01333849 0.059470445 0.035088092
0.02262479 0.048530214 -0.056748547 -0.028388266 0.036352627 0.001542293 0.050862998 0.0035056788
-0.058019202 -0.040339198 -0.04321613 -0.037031136 -0.036499936 -0.029939244 -0.009980279 0.04182194
-0.01590109 -0.031252623 -0.020868633 0.054753795 -0.018756695 -0.03583965 0.03063791 -0.03146933
-0.06358222 -0.015403839 0.0674237 -0.032029707 0.041193865 -0.032559667 -0.0018167477 0.067486204
0.033651404 0.025182735 0.023006039 0.00801686 -0.05603497 -0.0420784 -0.0074731023 -0.04230902

fc.0.weight f4 [512, 128]
00000000: 4626 4cbd 46ee 22bd e6e8 1fbd 4f99 5fbd
00000010: bce2 603d 7958 aa3d 06ae abbd ff63 793d
00000020: 7554 86bd d82e 09bd 2d6f 94bd 8b07 2b3d
00000030: f2ac 433c 4102 0b3d 4dee 8ebc c8d7 ef3c
00000040: be4a 5d3d bb7a 023d 41ce 4ebd 71b7 52bd
00000050: 1d92 603d 2352 7abd a9a2 8d3d aad7 6c3d
00000060: 766d 82bd 8dca 48bd acd4 7f3c 85c0 40bc
00000070: bfbf f23c 27a8 f53c d967 813d 78ee e83c
00000080: ec92 223d 5bee 34bd bdb0 a3bd 4a1d 3bbd
00000090: 7663 863c f762 bfbc b4d1 19bd 186d 3b3d
000000a0: 5469 813d 530d 243d dc73 5ebd 5d25 293d
000000b0: 104c 833d c5f3 88ba 70af fbbc bdee 4c3d
000000c0: dcf0 5fbd d5e3 61bd 1051 a63d 450a 6dbd
000000d0: 498a 673b 87bc 833c b4d6 b23d 18ff a23d
000000e0: f069 7e3d 2f7b 8c3d 2f60 75bc 94b0 b9bb
000000f0: 68a9 acbd 36c8 31bd 4246 e53c 5b81 74bc
00000100: eb18 8c3c d63e 7e3d dac7 8abc 641e aabd
00000110: 05ef 213c 3206 aa3d d452 e63c 57a7 84bd
00000120: aaaf 49bd c4f0 98bd 6791 f3bc d452 c03c
00000130: 5c02 16bd cc2c a9bd f851 91bc cb40 dabc
00000140: ded5 5d3b 2b02 adbd 9659 873d 11a6 3cbc
00000150: a4e1 513c 64eb 28bd 512f a7bd e1ac 833d
00000160: bf68 80bd 6ea1 61ba 177a 023d 5665 a5bd
00000170: 325a 903b ba53 543d 1179 253d 19cf 193d
00000180: 0088 3dbd 7efa 13bd b99b 6bbd 0674 c3bb
00000190: fff5 a5bd 2898 8cbd 0060 c8bb ef3d d33c
000001a0: 3fb9 bcbc d7b3 1dbd 969c a8bd 6220 613c
000001b0: 1a79 48ba 706a a1bd 0d93 8abd 02eb 94bd
000001c0: 4b30 a7bd 9cb2 4abd e2fe 0e3d 9d7a 68bd
000001d0: e4fe 963d 3a3c 833d e913 aabd 3bf4 3b3c
000001e0: 0be7 73bd 6c00 2abd 0a54 433d b3ce e7bb
000001f0: bd1b 36bd 93f8 19bd e6f5 a6bd ff2e 29bc
00000200: bb46 e73c a82a 473d 4518 eabd a466 aebd
00000210: a1fe c13c 0c5c 1ebd b6b2 98bc 282f 253d
00000220: 57b2 c43c bae1 40bd 1e65 0dbd 09d9 203e
00000230: 1f1c ef3c 3e0e f33c 92b3 09bc 0766 dcbd
00000240: 2fdf 66bd f8b4 1abd 98d6 333d ec75 d63d
00000250: 69d4 40bd 40b2 473d 3c9e a2bb 5191 c2bb
00000260: 48db 42bd b4b3 353d 0666 4f3d ee22 efbc
00000270: e911 a5bd 0140 483d a55a bebc 1093 49bd
00000280: 843c b8bc 04f5 e7bd 803f 89bd d925 013e
00000290: bdd7 c8bd a0f5 b93d 3195 823d cc8e 6dbd
000002a0: ea88 093e cdc6 453c 7353 253d c89d a53d
000002b0: 9768 8b3d 79da fa3c 1ea9 1abd 4cb3 c53d
000002c0: d7d8 713d c550 e73d 3631 9c3d 65c2 7d3d
000002d0: 3f94 573d c1a5 ba3d 113d cabc 28d8 74bd
000002e0: f14d c7bc 096b 40bd 1058 4d3d b803 96bd
000002f0: 0826 66bd 678e 7abd cdd6 89bd 7a6e 3a3c
00000300: 0541 9ebd 0e3e b83d 05cc 853c ec16 9fbd
00000310: bdf4 a23c 73b2 123e e667 5f3c 0b37 b93b
00000320: 74f3 85bd 4746 e73b 298b 523d 4bf8 893d
00000330: 1fdc a1bc 799a 023d ecee 60bc 8be3 853d
00000340: b7bf b0bd 80ad 423c 9621 16bc 6434 68bd
00000350: 3a72 16bc 9cd3 7c3c 179d c73d 6119 d1bd
00000360: 8d65 163e a884 31bc a56d c9bc f6b4 a6bd
00000370: de82 ab3d 9a81 9a3d 1ce0 46bb 07ed b6bd
00000380: 6577 3f3c b158 b2bc 8287 a83d 6dd7 85bd
00000390: 32f3 26bd 0857 443d 80c9 a03d b635 aa3d
000003a0: bdfb 2f3d 32ec c9bc 3891 0fbd 997b 3fbd
000003b0: ded3 6cbd ebcf af3c 1765 c8bc a218 62b9
000003c0: bb91 8a3d 3bb1 703c f50a ad3d 2583 103e
000003d0: 980e b33d c902 2dbc 31df b8bc 93a8 63bd
000003e0: 1d76 cc3c 2afa ac3d 6647 ca3c caf8 b8bd
000003f0: 9658 24bd 2f03 fbbb 47b1 c03b 4533 00bc
-0.049841188 -0.039778017 -0.03904047 -0.054589566 0.05490373 0.08317656 -0.08382802 0.06088638
-0.06559078 -0.03349194 -0.072477676 0.04175524 0.011943089 0.033937696 -0.017447615 0.029277697
0.054026358 0.031855326 -0.050489668 -0.051444475 0.054826844 -0.061113488 0.069157906 0.05782286
-0.06368534 -0.049021292 0.01561467 -0.01176465 0.029632447 0.029987408 0.063186355 0.028434023
0.039690897 -0.044172626 -0.079926945 -0.04568223 0.016404849 -0.02336262 -0.037553504 0.045758337
0.06318918 0.04005177 -0.05430971 0.041295398 0.06410992 -0.0010448626 -0.030723304 0.050032366
-0.05467306 -0.05514892 0.0812093 -0.057871122 0.0035330227 0.016081108 0.087323576 0.079588115
0.06211275 0.06859433 -0.014976545 -0.0056668017 -0.08430749 -0.043403827 0.027987603 -0.014923419
0.017101726 0.062071644 -0.016941 -0.08306578 0.009883647 0.08301963 0.028115667 -0.0647723
-0.049239792 -0.074677974 -0.02973242 0.023476996 -0.036623344 -0.082604975 -0.017739281 -0.026642224
0.0033849399 -0.08447679 0.06608884 -0.011514203 0.012810145 -0.04124011 -0.08163322 0.064294584
-0.06269979 -0.0008607124 0.031854715 -0.08075969 0.0044052834 0.05183766 0.04039866 0.03755102
-0.046272278 -0.03612756 -0.057521556 -0.005964759 -0.08103561 -0.06864959 -0.0061149597 0.025786368
-0.023037551 -0.038501587 -0.082329914 0.013740631 -0.000764744 -0.078816295 -0.06766329 -0.07271387
-0.08163508 -0.04948674 0.034911044 -0.056757558 0.07372835 0.06407972 -0.08304579 0.011471803
-0.05954651 -0.04150431 0.047687568 -0.007074201 -0.044460047 -0.037590574 -0.0815237 -0.010326146
0.02823197 0.048624665 -0.1143041 -0.08515671 0.023680987 -0.038662 -0.018639904 0.040328175
0.02401082 -0.04709027 -0.03452026 0.15707792 0.029188214 0.029669877 -0.008404629 -0.10761648
-0.05636519 -0.03777024 0.043905824 0.104717106 -0.04707757 0.048753977 -0.0049627107 -0.005937733
-0.047572404 0.04436083 0.050634407 -0.02919146 -0.08060057 0.048889164 -0.023236582 -0.049212515
-0.022489794 -0.1132603 -0.06701565 0.12612094 -0.09806774 0.090800524 0.06376112 -0.05799751
0.13431135 0.012071324 0.040362787 0.08086735 0.06807058 0.030621754 -0.03775894 0.09653339
0.059044685 0.112947024 0.07626574 0.061952967 0.052631613 0.09113646 -0.024687322 -0.059776455
-0.024329158 -0.046977077 0.05013281 -0.07324928 -0.056188613 -0.06117096 -0.06730423 0.011378879
-0.07727245 0.08996211 0.016332636 -0.07768044 0.019892091 0.14325885 0.013635611 0.0056523136
-0.065405756 0.0070579383 0.051402245 0.06736811 -0.019758282 0.031885598 -0.013728838 0.06537541
-0.08630317 0.011882186 -0.009163281 -0.05669059 -0.009182507 0.015431311 0.097467594 -0.10209919
0.14687176 -0.01083485 -0.024588415 -0.08139984 0.0837457 0.07544251 -0.0030345982 -0.08931928
0.011686181 -0.021770807 0.08228971 -0.0653523 -0.040759273 0.047934562 0.07850933 0.08311026
0.042964686 -0.02464876 -0.0350506 -0.04674873 -0.05781924 0.021461448 -0.024462266 -0.00021562216
0.06766077 0.014690693 0.084493555 0.14112528 0.08743018 -0.010559746 -0.022567363 -0.055580687
0.024958665 0.084461525 0.024692249 -0.09031828 -0.040123545 -0.0076602916 0.005880508 -0.007824724

fc.0.bias f4 [512]
00000000: 557f 98bd ead5 a23c 4ab1 513c e046 e33c
00000010: 24c2 54bd 0fb9 9d3d 592a a8bc ca60 15bd
00000020: c24e 4abd c082 d4bb 4b14 2b3d 8696 39bc
00000030: f314 ae3c f6e3 8e3d f0bf c63d 4219 49bd
00000040: 2b18 17bb 98b9 3b3d 88d5 91bc e705 b4bc
00000050: b6c2 4e3d 7f4b 34bd 09f2 c6bb 0555 823d
00000060: 3fe4 0c3d 0d84 71bd e3d1 9f3c c706 19bd
00000070: b835 9cbd ec18 94bd 36f7 babc 823a 873d
00000080: 8e11 7bbd d1ee 93bd 4663 973c 6493 a0bc
00000090: 600c 0bbb 0951 8d3d d65f 24bd 4c73 80bd
000000a0: e067 3cbd 734e 58bd 4cd6 79bc 117b d33d
000000b0: 62eb 5b3d 4f85 4c3d 955d 453d bc54 d2bc
000000c0: 7e85 1d3d fbe6 fabc e70c 583d ccf9 8cbd
000000d0: 62cb 7bbd 1fd7 a13c 3cb8 9b3d bd8b 63bb
000000e0: da20 54bc fb0b 913d c1e4 123c 775d 5c3d
000000f0: 4fcb 94bd 10ff bebc 6720 95bb c8dd c33d
00000100: 07fa f0bc 8c23 1f3d 96a1 de3c 7fd4 263c
00000110: 8c14 1c3d c31f 213d e2f0 733d 9c1c 803c
00000120: 1318 2f3d f742 e73c 8c5c 823d 34a8 a8bd
00000130: b88b b5bd dcc0 83bd d4be 47bd 3807 82bd
00000140: a418 28bd a1f6 943d 1546 9d3c 8088 713c
00000150: d7dc 3fbd e693 94bd d01e 40bd 112f 3bbd
00000160: 1441 4bbd cd3e 813c 3224 aa3c 81f9 fc3b
00000170: 613d 86bd fb27 3abd 8c0b e8bc 1015 323d
00000180: b650 20bd fa6d 923d db23 f73b 9ed0 1f3c
00000190: adf5 903d e6d4 ee3c 1070 9e3c 024d a43d
000001a0: 20ca 75bd 35b3 4a3c d9dd 833d a91c be3c
000001b0: fbcf a7bc 53c0 ac3d 02bf e53a 783b 5e3d
000001c0: 4abb 80bd ff67 5f3d 45ad b3bc a02d b43d
000001d0: c94a 613d d57e 3bbc 6198 95bd d1e1 383d
000001e0: e9a7 6dbd a19d 593d 7cee 0dbd b484 243d
000001f0: b7f3 7b3c 7cb7 0dbb 4062 94bd 6a62 33bc
00000200: 5a52 16bd dc8a 2abd 848e 9dbd 8440 5abc
00000210: 94eb 883d f93d 2e3c befa b139 8db3 0f3d
00000220: 76fc 26bd f863 c33d 5166 243c 6dea 82bc
00000230: 391d 813d fded b73d f2be 8bbc 649c b03d
00000240: eabe bb3c 4349 d63c 48e6 3c3c 3445 623d
00000250: a71f 58bd 7c20 883c daa2 ad3d 8ee5 9bbd
00000260: e610 36bd 044a 2cbc e49b 99bd d08f b13d
00000270: b592 08bd 89c6 16bd 351c 01bb f5f1 a8bd
00000280: d76d 75bd d78d 913d c4d8 d43c 07d9 65bd
00000290: a5c4 e83c b6b3 2a3d 4e6c 2c3d 6af4 84bc
000002a0: 8c2d d0bc 4279 1d3d e24b 18bd 9066 943d
000002b0: ee03 8fbc 01db b73d 14f1 84bc 59cd 843d
000002c0: f010 c33c c03f e43c 8bc7 4fbc 2800 a13d
000002d0: fe7a 8a3d 2e2c bb3d 8cf9 3b3d aaea 57bc
000002e0: e0e2 893c 8ae6 27bc 0ba5 fd3c d4b9 753d
000002f0: 597c 7e3b 8817 2ebd 1068 133d 1324 8ebc
00000300: 5dd1 4f3d 324a 123d 69f0 d7bb cc35 9b3d
00000310: bc3f 353c 81d4 d23c a82a a53d 908e a93c
00000320: e5d3 873d 23d3 0e3d 1198 5c3d a905 8f3d
00000330: 7fa3 083d eea1 3c3d dd90 993d d454 9f3c
00000340: e5b8 30bc fa14 a73d 0130 93bd 595d aebd
00000350: af06 4abd db0f 2f3d 0033 91bc 26ce 663d
00000360: cc91 7cbd 3ff0 603c 439c 16bd b72c 003b
00000370: 5c72 ee3c b569 82bd e005 923d 646a 09bd
00000380: b3a4 3f3d 14a3 b23d e9cf 213d 2ba1 07bd
00000390: 38f2 703d 1003 71bd 899e 8b3d 91c4 4c3d
000003a0: 5c9b 09bc 9c9e 4dbd 4007 abbc df94 043d
000003b0: a779 bbbd 513d 913d e65e 13bd 78a9 afbd
000003c0: 9f08 88bc 40ab 733d 8871 78bd fffe a83b
000003d0: 5330 69bd 0eed c13d 6424 82bd ad14 5b3d
000003e0: 9d68 1b3c c0a6 523d a206 633d 1674 fbba
000003f0: 274d 523c 49d6 b43d 6076 823d ba04 e1bc
-0.07446162 0.019877393 0.012798617 0.027743757 -0.05194296 0.07701313 -0.020528005 -0.03646926
-0.049391516 -0.006485313 0.0417674 -0.0113273915 0.021250224 0.06977074 0.09704578 -0.049096353
-0.0023055177 0.045831293 -0.017802015 -0.02197547 0.05047866 -0.04401731 -0.0060713333 0.063638724
0.03439736 -0.058963824 0.019509261 -0.03735998 -0.076274335 -0.07231316 -0.022822957 0.06602956
-0.06129604 -0.07223285 0.018479954 -0.019601531 -0.0021217093 0.06900222 -0.04013046 -0.06271991
-0.0459975 -0.05280919 -0.015248846 0.103262074 0.053691275 0.04993182 0.04818495 -0.02567517
0.038457386 -0.030627718 0.05274668 -0.068835825 -0.061473258 0.019755898 0.07603499 -0.0034720742
-0.012947286 0.07082363 0.008965672 0.053800073 -0.072653405 -0.023314983 -0.004550982 0.09563786
-0.029416097 0.03885226 0.02717666 0.010182499 0.038105533 0.03933693 0.059555896 0.015638642
0.04274757 0.028230174 0.06365308 -0.08235207 -0.0886454 -0.064332694 -0.048765972 -0.06349033
-0.041039124 0.07273603 0.019198457 0.014742017 -0.04684147 -0.07254772 -0.046904385 -0.045699183
-0.04962261 0.015777016 0.020769212 0.007720173 -0.06554676 -0.045448285 -0.028325818 0.043477118
-0.039139472 0.071498826 0.007542116 0.009754328 0.07078109 0.029154252 0.019340545 0.080225006
-0.060007215 0.012371828 0.064387985 0.023207026 -0.020484915 0.084351204 0.0017528238 0.054255933
-0.062857226 0.054542538 -0.021933207 0.08797765 0.05500296 -0.011443813 -0.073044546 0.04513723
-0.05802146 0.053128842 -0.034651265 0.040165618 0.01537793 -0.0021624258 -0.07245302 -0.010948757
-0.03669963 -0.041636333 -0.07693198 -0.013321046 0.06685558 0.010634893 0.00033946888 0.035083342
-0.04076811 0.09540552 0.01003416 -0.015980924 0.06304402 0.089809395 -0.017058823 0.08623579
0.022918183 0.02615798 0.011529513 0.05524178 -0.05276456 0.016617052 0.08478327 -0.076121435
-0.04444971 -0.010515694 -0.07500437 0.08670008 -0.033343036 -0.03681043 -0.001970065 -0.08249275
-0.059919205 0.07107132 0.025982268 -0.056115177 0.02841408 0.041675292 0.042095475 -0.016229827
-0.025412343 0.03844572 -0.037181742 0.07246125 -0.017457929 0.089773186 -0.016228236 0.064844795
0.023811787 0.02786243 -0.012681852 0.07861358 0.0676174 0.09139286 0.045892283 -0.013178507
0.016831815 -0.010247836 0.030962488 0.059991673 0.0038831441 -0.04250291 0.035987914 -0.017351186
0.050736774 0.03571529 -0.0065899384 0.0757862 0.011062559 0.025736095 0.08064777 0.020697862
0.066322125 0.034869324 0.05385596 0.069835015 0.033359047 0.046052866 0.074983336 0.019449629
-0.01078627 0.08158298 -0.071868904 -0.085138984 -0.04932278 0.04273973 -0.017724514 0.056348942
-0.06166248 0.013729154 -0.036770117 0.0019557902 0.029107265 -0.06367818 0.07130027 -0.033548728
0.04678793 0.08722511 0.03950492 -0.033112686 0.058824748 -0.05884081 0.068173476 0.049992148
-0.008398857 -0.05020009 -0.02087748 0.032368537 -0.09154063 0.07091773 -0.035979174 -0.085772455
-0.016605673 0.05948949 -0.060655147 0.005157351 -0.05693085 0.09469043 -0.06354597 0.053486515
0.009485391 0.051428556 0.055426247 -0.0019184377 0.012835777 0.08829934 0.063702345 -0.027468074

fc.2.weight f4 [7, 512]
00000000: 6137 023d 1bcf 963d df4d 1abc 7e35 ae3d
00000010: 30a9 ebbc 3c8a 853d 66d7 943c 2c38 9cbc
00000020: 4150 88bc 8ed9 803d 74d7 f63c 5b60 8b3d
00000030: e497 c0bd fb9b 0e3c 08ae 6c3d 02ca 95bc
00000040: ff65 a03d 7698 d8bc a16d 983d 2651 a1bc
00000050: c877 0c3e 34f6 ebbd 849d 27bd 8f06 16bc
00000060: eefe b5bd fd13 f53d 0e48 47bd 3da9 90bb
00000070: 0176 493a 7f7e fabc a489 ba3d 3a42 a2bd
00000080: b4ae d23c b007 8b3d 49ae 103d defa e63d
00000090: 04d1 f6bc 1519 b73c 77b5 3d3d 6fbf acbd
000000a0: 16a9 223d bb3e 793a 0447 26bd c7c8 d3bd
000000b0: 2b51 803d 29e3 323d 0cf7 163e 0e6e c63d
000000c0: f48a c33d 3ec4 1d3d 0fd8 a33c 2b77 5a3d
000000d0: 5a65 003c dc26 653d 2851 0d3e 5d31 babd
000000e0: ad46 18bd 65b1 253e 2c2f 3cbd dc11 863d
000000f0: 948e 8c3b 555e a5bd 765e fb3c caae 00be
00000100: e8f1 8abc 63f7 e8bc 7588 e5bd 881e c73d
00000110: 2205 9a3d ffd5 583c 1894 a13d c119 103e
00000120: 33b2 b33d 2fc8 1c3d f66f bebc f111 3d3d
00000130: f818 9bba 0516 643d 2ad9 993d 1e96 34bd
00000140: 09ca 913b a456 1fbd ab8e f83d 2056 c63c
00000150: 4a68 d43c 663d 253d aa92 153d 696b 83bc
00000160: 2935 813c a4a8 22bd 464d 34bd 914d ab3c
00000170: b24b aebc e682 20be 6bac 393d af2e c33d
00000180: 6cc0 c4bc a0f9 ca3d 9e9f 76bc edd4 8f3d
00000190: bdfa a73d 5a0e 143e 8680 9c3b 1749 a5bd
000001a0: d3b8 9fbc 590b 693c fdb7 1b3e b55c 1e3d
000001b0: 24fc 1bbe 287f e2bd 38f7 463c 182a ccbd
000001c0: be70 af3d f72c 433c c082 89bd 4c40 b0bc
000001d0: 691d 763d be45 933d e654 ec3d cb2c 07bb
000001e0: 462b da3c fd49 12ba 029c 20bd 62b0 ae3d
000001f0: ebe9 b9bc e9bc 09bc ded4 733c 2c18 adbd
00000200: 3d0c bf3d 77c5 8d3d f827 94bc 1679 233d
00000210: 305f 6e3d 6871 9b3d 3a88 413d c73f 57bd
00000220: 695e 0b3e 3641 003d de17 e7bd b945 2dbd
00000230: d262 513d b72a bcbd e3f9 1bbd ef00 953d
00000240: f662 db3c 3a3b a33d 3fd2 6c3d 3862 533d
00000250: 4ec6 553c a15e 4bbd 394a bdbd 1372 5cbd
00000260: 1cf5 3ebd e81f 433e 40eb dfbd ff1f 8fbd
00000270: f3eb 9abc 4f96 8bbd e6f3 9cbc 730f ad3d
00000280: e3d4 e23d 39fc efbc c985 90bc aa4a 9c3d
00000290: 7ad0 8e3d dad6 2b3d 491c 96bc 4edb 51bd
000002a0: 82f2 3a3d c253 883c 2b3e 1a3d 58e5 083d
000002b0: f815 dc3d fb26 07bc b2ca 433e 735d 803b
000002c0: b372 d33d 8821 a23d 3401 863d fc77 ccbc
000002d0: 6418 b93d 0b7e 45bc 349b b3bb 1220 82bd
000002e0: cfec 00bd fdc8 14bd 9271 e6bc b1d3 81b8
000002f0: 67dd 23bd 6673 99bd c51f afbc 2e80 fbbc
00000300: 7ac2 723b 8120 c53c 38b9 483c 68c0 853d
00000310: 0f49 12bc 4979 5b3d acf8 80bd 3e3c 873d
00000320: f31b 933c 4bbf 66be 9ab0 a5bd b47f 1e3b
00000330: 7628 853d 7309 07be 2cd8 d33c 75b9 be3d
00000340: 8214 023c e075 26bc faec 103e 06af 053d
00000350: 51ce ad3d 13f8 85bd 51bf 513d 8e99 7b3d
00000360: 4581 c03c 50db 9c3d e8c1 433c 22c4 533c
00000370: df80 883d 9b25 963d 80d0 a33d eda0 15bd
00000380: f940 1d3d 663e dcba aa76 fdbd 1d43 613d
00000390: 0338 173d 345b 0d3d f568 95bc 7b85 d2bc
000003a0: fae3 c13d b856 1c3d 5214 8abd 1b25 123d
000003b0: f84d 273c 5834 a43d b69e 0d3e 308e 60bc
000003c0: ad59 12be 6775 1fbc 190e 043e c734 9f3c
000003d0: ab9f af3d 2ea8 e03c 4700 273d 1b7c 973d
000003e0: 901d 9bbc e841 533c 7921 4a3d d253 c03d
000003f0: 8715 723d f840 713d 4f33 eebc a662 133e
0.031791095 0.07363721 -0.00941798 0.085062966 -0.028767198 0.06520507 0.018169116 -0.019069754
-0.01663983 0.06291495 0.030132033 0.06805488 -0.09403971 0.008704181 0.057783157 -0.018284801
0.07831954 -0.026439887 0.07442785 -0.019692015 0.13717568 -0.11521569 -0.040921703 -0.009156837
-0.088865146 0.11966703 -0.0486527 -0.004414706 0.00076851255 -0.030577896 0.09108284 -0.07922788
0.02571807 0.06788576 0.03532246 0.11278318 -0.030128963 0.022350827 0.046315636 -0.084349506
0.039712034 0.0009507944 -0.04059507 -0.103410296 0.062654816 0.043673668 0.14742678 0.0968896
0.095479876 0.03851723 0.020000486 0.053336304 0.007836664 0.055945262 0.1380049 -0.090914465
-0.037176777 0.16180952 -0.045943424 0.06546375 0.0042894576 -0.08074633 0.03068469 -0.12566677
-0.016961053 -0.028438276 -0.11207668 0.0972262 0.0752051 0.013234614 0.07889575 0.14072324
0.08774223 0.038276847 -0.023246747 0.04615969 -0.0011833003 0.055685062 0.07512124 -0.044088475
0.0044491333 -0.038900986 0.12136587 0.02421099 0.025928635 0.040341757 0.036516823 -0.016042428
0.015772419 -0.03971161 -0.044019006 0.02091101 -0.021276329 -0.15674934 0.045330446 0.095303886
-0.024017535 0.099108934 -0.015052704 0.07023034 0.082021214 0.144586 0.0047760634 -0.080705814
-0.01949731 0.014223897 0.15206905 0.03866263 -0.15232903 -0.110594094 0.0121439025 -0.09968966
0.08566426 0.011912576 -0.06714392 -0.021515034 0.06008664 0.07191037 0.115396306 -0.0020626064
0.026631963 -0.0005580483 -0.03921128 0.08529736 -0.022694549 -0.008406856 0.014882294 -0.08451876
0.09328506 0.06922429 -0.018085465 0.0399104 0.058196247 0.0758999 0.047249056 -0.052551057
0.13610233 0.03131219 -0.11283849 -0.04230282 0.051119633 -0.09187835 -0.038080107 0.07275569
0.026780587 0.07970281 0.057817694 0.05160734 0.013047768 -0.049650792 -0.092426725 -0.053819727
-0.046620473 0.1905514 -0.10933542 -0.06988525 -0.018911337 -0.068157785 -0.019159269 0.08450212
0.11075761 -0.029295074 -0.017641919 0.076314285 0.069733575 0.041952945 -0.018324034 -0.051234536
0.04564143 0.016641501 0.037656944 0.033421844 0.10746378 -0.00824904 0.19120291 0.00391739
0.103246115 0.07916552 0.06543198 -0.024959557 0.09037855 -0.012053977 -0.005481148 -0.06353773
-0.03147584 -0.03632449 -0.028130326 -6.19063e-05 -0.040006068 -0.07492714 -0.021377454 -0.03070077
0.0037042187 0.02406335 0.012251191 0.06530839 -0.008928551 0.053582463 -0.062974304 0.06603287
0.017957663 -0.2253391 -0.08090325 0.0024185004 0.06501858 -0.13187198 0.025859915 0.09312717
0.00793946 -0.0101599395 0.141529 0.03263762 0.08486617 -0.06541457 0.051207844 0.061425738
0.02349914 0.07659018 0.011948086 0.01292518 0.06665205 0.073313914 0.079987526 -0.036530424
0.03839204 -0.0016803264 -0.12376149 0.054995645 0.03691865 0.034510806 -0.018238524 -0.025698414
0.09467311 0.03816864 -0.06742157 0.035679918 0.01021146 0.08017796 0.13830075 -0.013705775
-0.14292021 -0.009732581 0.12896003 0.019434346 0.08575376 0.027423944 0.04077175 0.07396718
-0.018934995 0.012894131 0.04934833 0.093909875 0.05910256 0.05889985 -0.0290772 0.143931

fc.2.bias f4 [7]
00000000: 0189 d0bb 2986 87bc 5b5b 523d 59d0 3f3c
00000010: 1922 43b9 6fcf 213d 7d2f 19bd
-0.0063639884 -0.016543465 0.051356655 0.011707389 -0.00018609352 0.039504465 -0.037398804
